pred_model.ckpt (torch, 440105 bytes, 53 tensors)

model.fwd_gril.cells.0.forget_gate.filters.weight f4 [32, 170]
000000 2c 91 22 bd 1f 76 f1 3c ae f5 9c 3b 0e e2 85 bc
       -0.039689228 0.02947527 0.0047900295 -0.016343143
000010 ce 7a 5c bd 26 67 d8 3c 8b 75 79 3d 69 e8 5e bd
       -0.053828053 0.026416373 0.060903113 -0.054420862
000020 fa c8 8e bd ce 57 3d 3c 48 c0 45 3d 8e f8 35 bd
       -0.06971927 0.011556579 0.048279077 -0.044426493
000030 8f 7d 9a bd bb 49 f1 bc 27 bc a0 3c d4 3d 2d 3c
       -0.0754348 -0.029454103 0.019620968 0.010573823
000040 fe 1b 01 3d d7 e8 12 3d 90 58 74 bd da f7 5d bd
       0.031520836 0.035866585 -0.059654772 -0.054191448
000050 71 70 87 bd a5 ed 7a 3d f0 b1 84 3d f0 1f 5e bc
       -0.06613243 0.06126179 0.064792514 -0.013557419
000060 be f9 90 39 74 49 51 3d 6d cf e3 3c d7 10 9d bd
       0.00027651893 0.05109544 0.02780887 -0.076692276
000070 bd a3 fd 3c 7e 3e 62 bd c3 6e 70 bd 07 49 92 3d
       0.030961866 -0.05523538 -0.05869938 0.07142835
000080 57 3b 70 3d 13 52 74 3c 23 3c 35 3d 64 2d 70 3d
       0.05865034 0.014912146 0.044246804 0.058637038
000090 d1 df f9 bc 68 36 58 bc a0 34 82 bc c4 61 89 bd
       -0.030502232 -0.013196565 -0.015894234 -0.067081004
0000a0 05 0e 25 bc 54 af 75 3d 2c 01 22 3b 84 13 4e 3d
       -0.010074143 0.05998166 0.0024719937 0.05031158
0000b0 35 54 4d 3d 77 19 8c 3d 0f f6 0c bd 9f 57 a3 3b
       0.050129134 0.068407945 -0.034414347 0.0049848105
0000c0 43 c3 0e 3c 66 3f 94 3d b0 ba bd 3c 6e 79 75 bd
       0.008713546 0.07238655 0.023160309 -0.059930257
0000d0 c1 7b 53 3b 3b 63 93 bd 9a 98 31 bd 9f ca 8f 3d
       0.0032269808 -0.07196661 -0.043358423 0.07021069
0000e0 94 1c 4c 3d 78 60 2e bc 24 22 81 3d 92 45 0f bc
       0.04983194 -0.010643117 0.0630534 -0.008744614
0000f0 2b ea 34 3d f0 6f b5 3b 35 79 68 bd 20 a8 96 3d
       0.044168632 0.0055370256 -0.056756217 0.07356286
000100 0a 40 84 3d e8 a5 39 3d 08 ef 92 3d a3 3d 84 3d
       0.06457527 0.045324236 0.07174498 0.06457069
000110 cb 0c 2b 3c 74 da 42 3d 9b 67 71 3d ef 3f 32 bd
       0.010440062 0.047571614 0.058936696 -0.043518003
000120 74 32 09 bd 82 e4 93 bd 91 cb 99 3d d0 71 8e bd
       -0.03349538 -0.07221319 0.0750953 -0.06955302
000130 3f 3e 98 bb 0f ba 2e 3d 7a a8 8c bd 46 56 97 bd
       -0.004646092 0.042657908 -0.06868072 -0.07389502
000140 6c f8 30 3d 4e 3c ef bc c1 ab 10 3d 54 35 82 bd
       0.043205664 -0.02920356 0.035320047 -0.06357828
000150 a3 ec 89 3d be 77 78 3d 1e 51 41 3d b1 c2 a0 bc
       0.06734588 0.06066107 0.0471965 -0.019624086
000160 e5 f4 dc bc 17 a6 59 bc 7f 48 86 bd 16 b4 4a 3b
       -0.026972244 -0.013284228 -0.06556796 0.0030930093
000170 40 34 f5 3b bc 3f 90 bd 83 c9 86 bd 73 c5 ed bc
       0.0074830353 -0.07043406 -0.06581404 -0.029024815
000180 fd ff 34 bd af 8d 74 bd b9 b4 32 bd 3a 53 10 3d
       -0.044189442 -0.059705433 -0.04362938 0.03523562
000190 b4 54 92 3d 2d 6c 6d 3d 23 d9 ad bb 34 82 3b 3d
       0.07145062 0.057964493 -0.0053054257 0.04577847
0001a0 da dc ab 3c 99 05 9c bd 9a 89 a7 3a 84 35 7b 3c
       0.020979334 -0.07618255 0.0012782097 0.015332583
0001b0 b3 91 f6 3c e8 25 63 bb 6c a2 85 bd ab dd 8a 3d
       0.030098772 -0.0034660045 -0.0652512 0.06780561
0001c0 a8 7c e2 3c 8b cb 55 bc 34 1a 96 3d 9a 6f 10 3d
       0.027647331 -0.013049017 0.073292166 0.03526268
0001d0 1a a9 28 3d 0b 50 8f 3d 5a 5f 69 3d b1 82 c4 3c
       0.041176893 0.06997689 0.0569757 0.0239881
0001e0 41 15 a4 bc 64 76 24 bc 2a 61 97 3d 2d 09 8b 3c
       -0.020029666 -0.010037992 0.073915794 0.016972149
0001f0 25 67 35 bd ea b0 36 3d 3d 2a ce 3b fd 10 90 3d
       -0.04428782 0.044602312 0.0062916563 0.0703449
000200 2c 4c b0 bc 5f 3a 00 3d 61 e2 18 3c 45 1b 62 bc
       -0.021520697 0.031305667 0.009331317 -0.013800447
000210 c5 46 7f 3d e2 07 13 bd 41 65 2e bd 7e 7a 77 3d
       0.06232335 -0.03589619 -0.042577032 0.060419552
000220 86 ce 07 3b 71 35 05 3d 6a c1 6a 3d dc e3 a0 ba
       0.0020722463 0.03252167 0.05731336 -0.0012274939
000230 8b 6b 5c 3d 8e 27 8f 3d 41 03 92 bd 58 12 4b 3d
       0.0538135 0.06989966 -0.07129527 0.04957804
000240 3e c0 81 bd 63 19 fb 3c de 42 34 bd 25 0b 7f bd
       -0.063354954 0.030651754 -0.044009082 -0.062266488
000250 21 ff 98 bd cc 0f 93 bd 63 a1 51 bd b2 e7 f9 3b
       -0.07470537 -0.071807474 -0.0511793 0.007626497
000260 f4 05 cf bc 79 2c 57 bd c2 6a 14 bd ce dd be ba
       -0.025271393 -0.052532647 -0.036234625 -0.0014561953
000270 e0 95 21 3d 89 7b 12 3d ae 1e 88 bd 80 ec 54 bd
       0.039449573 0.035762344 -0.06646477 -0.051983356
000280 14 10 47 3d 7e 16 07 bd a4 08 80 3d fc 81 56 3d
       0.048599318 -0.032980435 0.06251648 0.052370057
000290 8f 3c 8c 3c 98 70 7b bd b8 9c 5b bc c0 8e 6c 3c
       0.01711872 -0.061386675 -0.013404064 0.014438331
0002a0 37 c7 bf 3c bf a5 03 bc 26 4d 56 3d 83 c1 7f 3d
       0.023410423 -0.008035122 0.05231967 0.062440407
0002b0 ef d0 bf 3b bd 78 04 3c b5 1c b4 bc df 76 9a 3d
       0.0058537642 0.008085427 -0.021986345 0.07542204
0002c0 18 16 0c bd c4 e3 85 3d 64 1b 1c 3d 69 b9 6b 3d
       -0.034200758 0.065375835 0.03811206 0.057549868
0002d0 43 50 a9 3a 98 a7 73 bd 6e 71 f0 3c 82 18 8a 3d
       0.0012917597 -0.059486 0.029350962 0.06742956
0002e0 38 75 8c 3d d1 ac c7 bc 6e 3a 3d bc 75 42 e9 3c
       0.06858295 -0.024374397 -0.011549575 0.028474072
0002f0 99 20 25 bd e7 39 8f bd c4 f3 48 3d 8e 04 66 bd
       -0.04031429 -0.06993466 0.049060598 -0.056156687
000300 39 21 50 bd c1 97 fd 3c db 5d 0d bd c0 b7 31 3b
       -0.050812934 0.030956151 -0.034513336 0.002711758
000310 3f fe 1d 3c ce 65 3b bd fa 32 39 bd b0 7a 3f bd
       0.0096431365 -0.045751385 -0.04521463 -0.046747863
000320 60 c3 58 bc 7f 0a 4f 3c ef b4 8c bd cc 39 80 bc
       -0.013230175 0.01263678 -0.06870448 -0.01565256
000330 b6 bd 39 bd dd 9c e9 3a 27 dc 82 3d 0c 64 80 bd
       -0.045346938 0.0017823238 0.06389647 -0.062690824
000340 20 50 62 bd 37 cd 7e bd 97 7b 31 bd 50 5f 60 bc
       -0.055252194 -0.062207427 -0.043330755 -0.013694599
000350 8e 30 09 bd d6 1b f6 3c 69 f2 6c 3d b7 4c 95 3d
       -0.03349357 0.03004257 0.057848368 0.07290023
000360 a4 7f e0 bc 1c f5 32 bd e4 bc 46 bd da a4 42 3d
       -0.027404614 -0.043690786 -0.048519984 0.047520496
000370 e0 16 63 bd f4 65 73 3d e3 67 cd 3c 21 7e 9c bc
       -0.055441737 0.059423402 0.025073951 -0.019103112
000380 22 39 14 bd d9 a6 45 3d ac a7 5f 3d 35 c5 90 3d
       -0.0361873 0.04825482 0.054603264 0.07068864
000390 aa 0e 29 3d 93 e3 d4 3c 85 34 7b bc 6b 38 46 bd
       0.04127375 0.025987422 -0.015332346 -0.048393648
0003a0 11 72 9a 3d 04 17 6e 3a 70 6b 9b bd 58 f4 d5 39
       0.07541288 0.0009082409 -0.075888515 0.00040808576
0003b0 5a 03 74 bd 33 95 8f 3c 77 0a 82 bd 44 ba 18 bd
       -0.05957351 0.017527198 -0.06349652 -0.03728701
0003c0 3e 44 0e 3d 80 94 e0 bc 95 c8 c4 bc cc 18 3c bd
       0.03473305 -0.02741456 -0.024021426 -0.045922086
0003d0 67 09 06 3c 30 0c ed 3c 6a 16 e9 3c 68 61 c7 3c
       0.008180953 0.028936476 0.02845307 0.02433844
0003e0 00 11 aa bc 2f ae 95 3c 54 63 09 bc 32 66 15 3d
       -0.02076006 0.018271534 -0.008385498 0.036474414
0003f0 ae 64 74 bd 05 6b 92 3d ca 61 4f bd 3c c2 f8 3c
       -0.059666328 0.071493186 -0.05063037 0.030366056

model.fwd_gril.cells.0.forget_gate.filters.bias f4 [32]
000000 77 a7 84 3d a6 5c 8a 3d d4 24 b9 bc f2 98 8f 3d
       0.06477254 0.067559525 -0.022600569 0.07011594
000010 05 13 84 bd d4 2b 99 3d 1d 0f 88 bd 8a a9 5e bd
       -0.0644894 0.07479063 -0.06643508 -0.054360904
000020 9d eb c4 3c 07 6f f7 ba 1c 9d af 3c f3 0a 7b bc
       0.02403813 -0.0018877693 0.02143722 -0.015322435
000030 7f e1 cc 3c e3 ec aa 3b 6d bf 30 bd e3 84 4d 3d
       0.025009869 0.0052162274 -0.043151308 0.05017556
000040 5c 82 50 3d 90 ff 90 bd 2c d1 9f 3c a2 91 7c bd
       0.05090557 -0.07079995 0.01950892 -0.061662324
000050 1f e4 09 3d 42 ab f9 bb c9 e5 50 3c 57 a9 79 3b
       0.03366482 -0.0076192925 0.012750098 0.003809532
000060 ed 1f 82 bd cc c7 2b bd 67 78 cc bc aa 92 c4 bc
       -0.063537456 -0.041938588 -0.024959756 -0.023995716
000070 59 3e bc bc b1 20 83 3d 17 27 6a bd 78 ee 58 bd
       -0.022978948 0.0640272 -0.057166185 -0.052961797

model.fwd_gril.cells.0.update_gate.filters.weight f4 [32, 170]
000000 e2 87 70 bd 38 ab 8e bd 42 e3 79 3d f8 86 4d bd
       -0.058723338 -0.06966251 0.061007746 -0.050177544
000010 7e 66 90 bd be d7 1d bd 01 d5 66 bd da 60 fe 3c
       -0.07050799 -0.038535826 -0.05635548 0.031052042
000020 7d 55 83 bd b3 c1 cd bc 3f 4d 80 3d 68 61 58 3d
       -0.0641279 -0.025116777 0.062647335 0.05282727
000030 c1 bb 1f bd 88 3d ef 3b 7a 7f 92 bd 64 eb 24 3d
       -0.038997415 0.0073010363 -0.071532205 0.04026355
000040 bc ec 8b bd 3e 08 23 bc a4 c1 58 bd 08 ac 0a bd
       -0.06832263 -0.009950696 -0.052919045 -0.033855468
000050 7c 3d 8b 3d 88 72 b4 3b 6b 56 87 3b 86 39 8a bc
       0.067988366 0.0055068173 0.004130175 -0.016873132
000060 3c 56 60 bd 5d f4 f4 bb 37 b5 4d bd 89 a0 30 3c
       -0.05476974 -0.0074754194 -0.050221648 0.010780462
000070 d9 30 55 bc 1c ed 41 bc 69 36 f9 bc 52 73 98 bc
       -0.0130121345 -0.011836316 -0.030421453 -0.018609677
000080 fd ab a9 ba 23 1d bf bc 81 28 18 bd 61 4f e0 3c
       -0.0012944933 -0.023329323 -0.037148003 0.0273816
000090 16 3c f0 bc 5b 59 65 bd 24 c5 27 3d dc 6f b8 bc
       -0.029325526 -0.05599342 0.040959492 -0.022514276
0000a0 48 53 bd b9 e3 9b 0b 3d e4 a0 c4 3c d4 1c 04 bd
       -0.00036110939 0.034084212 0.0240025 -0.032254055
0000b0 d7 9a 07 bd 04 49 4a bb a6 f4 3a 3c 03 d8 9d bb
       -0.03310665 -0.0030866275 0.011410868 -0.0048170104
0000c0 c6 dc 99 bc 63 f3 4a 3d 53 03 c0 3b b5 52 4c 3c
       -0.01878203 0.049548518 0.0058597713 0.012470891
0000d0 66 f7 87 bd 49 2d 85 3d d3 17 64 bd b3 c0 52 bd
       -0.066389844 0.06502778 -0.055686783 -0.051453304
0000e0 5c 01 3a bd bd 50 20 3d b2 68 26 3d c9 93 19 3d
       -0.045411453 0.039139498 0.04062719 0.037494455
0000f0 dd 4d a3 3c ed 05 7e bc 6d 6e d0 3c 00 eb 99 3d
       0.019934589 -0.0155043425 0.02544328 0.07515526
000100 e5 99 8e 3d 91 ce 94 3d f0 a7 67 bd da e5 11 bd
       0.06962947 0.07265962 -0.056556642 -0.035619594
000110 b8 65 85 bd 32 bc 8b bd d4 1b 49 bd cf 69 03 bd
       -0.06513542 -0.06823005 -0.049098805 -0.03208333
000120 65 e0 8a bc 2c 36 b4 ba d7 78 8c 3d 00 72 e4 ba
       -0.016952703 -0.0013749055 0.06858986 -0.0017428994
000130 bd 89 75 bd 98 0d 72 bd d5 2e fa 3c ae 63 7b bd
       -0.05994581 -0.059094995 0.03053991 -0.06137436
000140 14 ce e7 bc 80 43 81 bd 3b a9 24 bd 26 56 49 3d
       -0.028296508 -0.06311703 -0.040200453 0.049154423
000150 00 58 8c bd 1e 6d 98 3d 23 52 f3 bc 46 60 38 bd
       -0.06852722 0.074426875 -0.029702252 -0.04501369
000160 77 0b 38 3c ac 64 18 3c 6b 11 27 3c 44 1d 81 3d
       0.011233202 0.009301346 0.010197024 0.0630441
000170 9f c5 c5 bc 8f 69 ab 3c f9 df 90 3c 5f 34 7f bd
       -0.024142085 0.020924358 0.017684923 -0.062305804
000180 00 72 e4 bb 8b 26 8d 3d 94 2c 69 3a 85 1f 68 bd
       -0.0069715977 0.06892117 0.0008894887 -0.056670684
000190 fc 86 9c 3d 23 c2 98 bd 70 bb 55 3c 53 92 6b bd
       0.07642934 -0.07458904 0.013045177 -0.057512593
0001a0 08 7b 8d 3d a9 83 0a 3d 53 70 96 3c 4e 10 18 bd
       0.06908232 0.033816967 0.018364107 -0.037124924
0001b0 a8 08 98 3c 35 9e 13 3c c8 23 96 3c 45 7b 60 bc
       0.018558815 0.009009887 0.018327609 -0.013701265
0001c0 2d dc 63 3d 10 dd 37 bd bd 82 8e bd 42 23 8e 3d
       0.055629898 -0.044888556 -0.0695853 0.06940319
0001d0 77 51 88 bd fa e0 77 bd 2d 6d a3 3c e3 b7 3d 3d
       -0.06656163 -0.06051729 0.01994952 0.046317946
0001e0 bb 13 69 3d a6 d6 e4 bc 1d 79 80 3d 86 e9 98 bd
       0.056903582 -0.027934384 0.062731005 -0.07466416
0001f0 3f 7a 80 bd 8f c3 28 bc e1 2f 22 bd 94 98 90 bd
       -0.062733166 -0.010300531 -0.039596442 -0.07060352
000200 56 6d 6b 3b 22 07 82 bd 68 20 cd bc c5 11 2e 3d
       0.0035923324 -0.06349017 -0.025039867 0.042497415
000210 e8 ae 81 3c f9 fd 59 bd 91 ae 12 3c 79 54 5e bd
       0.015830472 -0.053220723 0.008952753 -0.05427978
000220 35 22 4a 3d 57 2b ee bc 70 97 36 3d c2 b3 1c 3c
       0.04934903 -0.0290734 0.044578016 0.009564342
000230 90 5c 07 bd dc e2 b9 bc 88 b9 dc bb 3f 29 a8 bc
       -0.03304726 -0.022691183 -0.0067359842 -0.02052748
000240 df 9f a9 3b e5 bb 84 bd f5 d0 07 3d f7 f8 12 bc
       0.005176529 -0.064811505 0.03315826 -0.008970491
000250 3d 9e 1a bd 6d 85 84 3d 15 53 19 bc 21 55 73 bd
       -0.037748564 0.064707614 -0.009358187 -0.059407357
000260 94 1b dc 3c b5 7c 8f 3d c7 2f 11 bc 71 da d5 bc
       0.026868619 0.07006208 -0.008861489 -0.026105138
000270 53 2e c7 bc 17 b7 4b 3d b5 10 77 bd 78 0a 41 bd
       -0.024314081 0.049735155 -0.060318667 -0.047129124
000280 f7 a2 d9 bc 27 20 a3 bc 4e ec 80 3d a0 d8 97 bd
       -0.026566966 -0.019912792 0.062950715 -0.07414365
000290 0a 55 91 bd 13 f4 ee bc 69 ce 8a 3d 4a b1 6e 3c
       -0.07096298 -0.029169118 0.06777651 0.014568636
0002a0 26 65 a8 bc cc 97 fc bc 88 ca fc bc 6f ed 5e bd
       -0.020556044 -0.030834101 -0.030858293 -0.054425653
0002b0 23 05 96 3d 17 69 fc 3c b1 96 16 3d 65 d9 54 bd
       0.073251985 0.03081183 0.036764804 -0.051965136
0002c0 3e e7 59 bc 47 67 b4 3c 50 60 be 3c 59 f7 55 bd
       -0.013299761 0.022021903 0.023239285 -0.052237842
0002d0 3b a0 ad 3c 84 b5 34 bd 84 ad 16 3d b2 7a b5 3c
       0.021194568 -0.04411842 0.03678657 0.022153232
0002e0 f7 e7 23 bd 07 ff 2a bd 69 78 77 3d 7d 9b 5a bd
       -0.04001614 -0.04174712 0.060417566 -0.05337094
0002f0 a3 3c 58 3d 5a 99 18 bd b6 56 d9 b9 72 a8 10 3d
       0.052792203 -0.037255622 -0.0004145407 0.035316892
000300 38 2b 92 bd ec e2 80 bd cb 2f b3 bb 63 ec f7 3c
       -0.071371496 -0.06293282 -0.005468344 0.030264085
000310 5a 15 6c bd ca 65 b9 bb ae 88 63 3d 1e ad 4e bc
       -0.05763755 -0.005657886 0.05555027 -0.012614517
000320 5f e8 13 bd 99 b9 2a 3d a5 9d 5f bd 53 12 6d bc
       -0.03611028 0.041680906 -0.0545937 -0.014469701
000330 7f 40 a0 3c 92 fb 2c 3d 6e e2 91 bd ac a0 7e 3d
       0.019562004 0.042232104 -0.07123266 0.062164947
000340 76 8d 97 3d 77 aa 89 3d 6e 25 5b 3d 9f 24 b8 bc
       0.074000284 0.06721967 0.053502493 -0.0224784
000350 0f d4 28 bd b1 f2 8c 3d 12 9d f9 bb e9 c2 54 bd
       -0.04121786 0.06882227 -0.007617601 -0.051943693
000360 71 74 ac 3c 1d 72 4f 3c 20 93 50 3d f4 ee 93 3d
       0.021051617 0.012661484 0.05092156 0.07223311
000370 6c ce 91 bc 08 9b 52 3b fa 69 6c bb 08 4a 19 3d
       -0.017798625 0.0032135863 -0.003607391 0.037424117
000380 fd 82 db bc b9 50 38 3d de 6e d3 3b d0 b6 c9 bc
       -0.026795859 0.044998858 0.0064524254 -0.024623305
000390 68 31 76 bd c7 a0 81 bd 7f 86 f1 3c f0 42 1e bd
       -0.06010571 -0.06329494 0.029483078 -0.038638055
0003a0 00 56 1f bd d3 06 81 bd d3 64 20 bd 73 6d 5c 3c
       -0.038900375 -0.0630013 -0.039158653 0.013453829
0003b0 4d 6f 42 3c d3 4c cb bc 1c f4 42 3d cd a9 d1 3c
       0.0118673565 -0.024816906 0.047596082 0.025593663
0003c0 40 ce 59 bd ad 84 0d 3d 9b 82 55 bc b8 06 80 3d
       -0.05317521 0.034550358 -0.013031627 0.062512815
0003d0 e8 a2 5f bd 79 cf 95 bc ea f5 80 bc d1 71 3e 3c
       -0.05459872 -0.018287407 -0.015742261 0.011623816
0003e0 0e 14 0d 3d 70 5b d1 bb e6 fd 7c bb 19 09 98 3d
       0.034442954 -0.006389074 -0.0038603484 0.0742361
0003f0 76 04 ed 3c be 76 48 3c a0 b1 43 bd db 47 a1 bc
       0.028932791 0.012235342 -0.04777682 -0.019687584

model.fwd_gril.cells.0.update_gate.filters.bias f4 [32]
000000 a0 d1 11 bd 87 32 2e bd 76 6c 56 3d ba 22 5b 3d
       -0.035600305 -0.042528655 0.05234953 0.053499915
000010 f7 0a 12 bd 49 a3 ac ba 0d c2 a7 bb 3b 9e 86 bc
       -0.03565499 -0.0013171221 -0.005119568 -0.016432872
000020 0e f1 20 bc 45 bd 56 3d 1a d8 1e 3c 2c bb 1a bc
       -0.009823097 0.052426595 0.009695077 -0.009444039
000030 31 b9 9e 3c 11 16 2f bd 93 55 6c bd 2d 04 a9 bb
       0.019375416 -0.042745654 -0.057698797 -0.0051579685
000040 89 c3 b5 3b 6c 4f 11 3d d8 f9 5c 3d 12 1f 43 3d
       0.0055469912 0.035476133 0.053949207 0.047637053
000050 e6 b1 90 3c 18 88 79 3c 60 40 51 3d 17 82 28 3d
       0.017662954 0.015230201 0.051086783 0.04113969
000060 ce 47 60 3d d9 78 3f 3d d8 e8 88 bb 82 e6 62 bd
       0.05475598 0.04674611 -0.0041781478 -0.05539561
000070 bf 24 24 3c 73 14 78 bd b6 df 68 bd 41 2e 2e bd
       0.010018527 -0.060566377 -0.056853972 -0.04252458

model.fwd_gril.cells.0.candidate_gate.filters.weight f4 [32, 170]
000000 5b 63 00 3d 7a 2f d0 3a 60 8a c5 bc 5f 11 88 bd
       0.031344753 0.001588329 -0.024113834 -0.06643938
000010 05 35 d6 3c 30 f9 e9 bc ed 52 49 3d 06 0b 6e 3d
       0.026148329 -0.028561205 0.04915135 0.05811598
000020 e7 3f f0 bc 3d ef 91 bd 68 c6 5e 3d e4 77 84 3d
       -0.029327346 -0.07125709 0.054388434 0.0646818
000030 8c a8 74 bd 96 d8 3f 3d bd de 84 bd d1 c8 ba bb
       -0.05973105 0.04683741 -0.064877965 -0.0057002087
000040 28 04 3a bd cc d5 00 3c 66 0e 9c 3d 90 88 3c 3d
       -0.04541412 0.007863473 0.07619934 0.046028674
000050 65 3a 81 bd 0f 68 16 3d c5 3b 68 bd 29 df 72 bd
       -0.06309966 0.03672033 -0.056697626 -0.059294853
000060 a8 32 35 bc 3e f5 56 bd b1 e7 cf bb 35 5b 87 bd
       -0.011059441 -0.052479975 -0.0063447584 -0.06609193
000070 b1 dd 99 bc 50 81 2b 3d fb 85 2d bd 5f d1 94 bd
       -0.018782469 0.04187137 -0.0423641 -0.07266497
000080 73 05 17 3d 6c c7 3c 3c b1 38 9a 3d 01 fa 91 3d
       0.03687043 0.011522155 0.07530344 0.071277626
000090 f8 69 9a 3d 0f 81 01 3d ef fa 19 bd c4 5a 26 bd
       0.07539743 0.03161722 -0.037592825 -0.040613905
0000a0 e1 6b 83 3d 16 ec 8e 3c 0e e6 00 bb 4d a6 83 3d
       0.06417061 0.017446559 -0.0019668373 0.06428204
0000b0 28 ab 9c bd fb 33 dd bc bf b6 87 bb c7 9b ba bc
       -0.07649833 -0.027002325 -0.004141658 -0.022779359
0000c0 f5 26 9b 3d c2 d3 57 3d c4 2d 90 3d 86 00 86 3d
       0.0757579 0.052692182 0.07039979 0.065430686
0000d0 bc ff 52 3c 6a 88 5d bd 7c bb c7 bb d9 18 26 3b
       0.012878355 -0.054085173 -0.006095348 0.00253444
0000e0 6b fe 31 bd 19 33 2a bd 06 7d a7 3a 22 00 82 3d
       -0.043455523 -0.041552637 0.0012778349 0.063476816
0000f0 9a 7c 90 bd 2f 74 9b bd 7a c5 19 bd 34 29 8e bd
       -0.07055016 -0.0759052 -0.037541844 -0.069414526
000100 fb 67 97 bd 2d e9 5d bc 3f a8 19 3d 4c c8 df 3a
       -0.073928796 -0.013544363 0.037513968 0.0017073243
000110 55 b0 40 bd 84 0d 3d 3d d1 da a2 bc bd d5 2b 3b
       -0.047043163 0.046155468 -0.01987973 0.0026219927
000120 3e 96 8b 3d 04 8e 96 3d 85 60 d4 3c d4 d0 a2 3c
       0.06815766 0.07351306 0.02592493 0.019874968
000130 43 a2 86 3d c0 ae d1 bc ac d4 5b bd 54 4a 9b bb
       0.06573918 -0.025596023 -0.053669617 -0.004739085
000140 d7 fb 54 bd 1c 2c 8a bd e5 3d 89 bd 40 51 d5 bc
       -0.051997986 -0.067466944 -0.067012586 -0.02603972
000150 cf af d0 3c 04 a2 2b 3d 03 32 26 3d 5f f5 07 bc
       0.025474457 0.041902557 0.04057504 -0.008298247
000160 15 b8 7b 3d 8b 0c 64 3d c1 a0 54 3d b1 84 0f 3a
       0.06145485 0.055676024 0.05191112 0.00054747897
000170 cb 45 dd 3c c7 34 8f bd f0 58 80 bd 27 e3 01 3c
       0.027010819 -0.06992488 -0.062669635 0.0079276925
000180 21 43 2a bd d3 e3 e0 bc 18 eb 91 3d aa e4 f0 bb
       -0.041567925 -0.027452385 0.07124919 -0.0073514776
000190 c5 0b d1 3c 97 64 42 bd 4c 7a 79 bd 1c 89 fc bc
       0.025518307 -0.04745921 -0.060907647 -0.030827098
0001a0 37 e8 dd 3c 5f 8e 85 bd 2c 4f 2d bd 61 e4 43 bd
       0.027088268 -0.06521296 -0.042311832 -0.04782522
0001b0 26 85 11 3d b9 dd 76 3d 8c 15 5f 3d 8c 5e 01 3c
       0.03552737 0.060270045 0.054463908 0.007896077
0001c0 38 41 2f bd dd c4 cd 3c 38 6c 38 3d 9f c2 5f 3b
       -0.042786807 0.025118286 0.04502508 0.0034143103
0001d0 61 33 5b bc f6 ee 02 3d 5e f0 9c bd b5 c1 1c 3d
       -0.013378949 0.031966172 -0.07663034 0.03827067
0001e0 0f 68 8f bd eb 12 5b bd 49 bd da bc ec da 67 3d
       -0.070022695 -0.05348484 -0.026701586 0.056605265
0001f0 ef e7 4d bc dd 0c 37 bd b2 63 3b 3d f3 88 24 bc
       -0.012567504 -0.04469 0.045749374 -0.010042417
000200 e0 30 83 bd 70 a1 5b bd 7b c3 07 bd 2c a1 ed 3c
       -0.064058065 -0.053620756 -0.03314541 0.029007517
000210 96 dc 7d bc 89 fc 0e 3d 79 f7 6c 3d 7e 21 48 3d
       -0.015494486 0.034908805 0.057853196 0.048860066
000220 13 de f2 3c 62 6e a3 3c 93 ed ba bc 4a 60 2c 3d
       0.029646909 0.019950096 -0.022818362 0.042084016
000230 00 30 7c 3d 22 f7 d1 3c 5f 76 30 bd 6e 88 83 3d
       0.061569214 0.025630537 -0.043081637 0.06422506
000240 6f 77 94 bd 76 b1 3d 3b f3 80 5c bd 7e ac 7b bd
       -0.07249343 0.0028944886 -0.053833913 -0.0614438
000250 d9 81 4a bd 44 e8 60 bd 95 40 76 bd 6a 5d 87 3c
       -0.04944024 -0.054909006 -0.060120184 0.016524035
000260 bc 61 22 3d 46 7d cf 3c 74 81 41 3d c9 22 cd 3b
       0.039643988 0.02532829 0.047242597 0.00626025
000270 1b 93 44 bd d3 6a 92 bd a4 2e cf 3c 74 75 e4 3b
       -0.047991853 -0.07149281 0.025290795 0.0069720093
000280 0f 17 4d 3d 6b fd 3c bc d8 38 82 3c d1 ce dc 3c
       0.05007082 -0.011535029 0.015896246 0.026954086
000290 03 9e a0 bc 3d 90 4a bd c6 c8 38 bd 4f 87 90 bd
       -0.019606596 -0.049453963 -0.045113347 -0.07057058
0002a0 83 5d 5d 3c 1c e7 25 bc e7 74 b8 3c 63 a0 bc 3c
       0.013511064 -0.010125902 0.02251668 0.023025697
0002b0 6b 0c 02 bb 6a 26 fa 3c 69 4c 8d bd b7 e8 04 3d
       -0.0019843827 0.030535895 -0.0689934 0.032448497
0002c0 aa c5 07 3c 25 cd fb 3c 81 39 89 bd 5f 7d 52 bd
       0.008286873 0.030737469 -0.06700421 -0.051389094
0002d0 ca 0f db bc ee 44 94 bd 8c d5 62 3d 27 d4 83 bd
       -0.026740927 -0.0723971 0.055379435 -0.06436949
0002e0 66 d3 03 bd 87 83 88 3c bb 9d 7f bd 76 af 40 3d
       -0.032184027 0.01666428 -0.062406283 0.047042333
0002f0 b2 33 8e 3d 8a 63 31 3c d4 a9 7e bd 43 16 ef 3a
       0.06943454 0.010826955 -0.06217368 0.0018240887
000300 5e d5 ac bb df da 60 ba 8f 9f 05 3d e0 53 07 bd
       -0.005274459 -0.0008577536 0.03262287 -0.033038974
000310 55 91 11 3c 7b dc 92 bd dd fd 3b 3d ce 8b 2e 3c
       0.0088847475 -0.071709596 0.0458964 0.010653449
000320 b0 4a a5 bc 85 63 86 3c 02 63 6f 3d bb 9b 3a bd
       -0.020177215 0.016404876 0.05844403 -0.045558672
000330 85 8a 5f 3c 3e 21 94 3d 34 08 81 3d 11 f6 70 bd
       0.0136438655 0.07232903 0.06300393 -0.058828417
000340 26 c8 55 bd 88 ae 77 39 1c 67 36 bd 05 be 79 3d
       -0.05219283 0.00023620774 -0.044531927 0.060972232
000350 72 20 8d bd de ac 05 bd 71 a1 8e 3d e3 dd 86 bc
       -0.06890954 -0.032635562 0.06964386 -0.016463226
000360 1d df 92 3d 5d 1a 8f bd 33 3e 4f 3d f8 b2 26 3c
       0.07171462 -0.0698745 0.050596427 0.010174505
000370 a4 3a 62 bd 2a 0a c4 3c f8 a0 ab 3c 50 30 85 3d
       -0.055231705 0.023930628 0.02095078 0.065033555
000380 a4 db 52 3d 04 a2 4b bd 2a 69 88 bc f5 a9 88 3d
       0.051478997 -0.049715057 -0.016651709 0.06673042
000390 46 a6 f0 bc 64 51 cb 3c 77 ae 60 3c c5 1d 72 3d
       -0.02937616 0.024819084 0.013713471 0.05911042
0003a0 aa c3 2a 3d ed 1d 8f 3d ae f1 88 bd 8e dc 80 bd
       0.041690506 0.0698813 -0.06686722 -0.062920675
0003b0 d7 68 57 bd 87 14 0b 3d 1e 88 10 bd 47 d9 87 3d
       -0.052590217 0.033955123 -0.03528606 0.06633239
0003c0 82 a7 c4 bc 85 c9 88 3d c1 b6 5a bd 77 b8 7d bd
       -0.024005655 0.06679062 -0.053396944 -0.061943498
0003d0 c8 5e 1a bd c7 eb c8 bc e5 b4 94 bd f4 c3 7b 3d
       -0.037688047 -0.02452649 -0.072610654 0.061466172
0003e0 92 df ca bc 84 bb 1c bd 4a 2d bb bc 68 29 0a 3d
       -0.02476481 -0.038264766 -0.022848744 0.033730894
0003f0 06 f0 3e 3c aa 09 3e 3b ba 54 9c bd 58 20 a3 bc
       0.011653906 0.002899746 -0.07633348 -0.019912884

model.fwd_gril.cells.0.candidate_gate.filters.bias f4 [32]
000000 41 56 2a bd 20 11 22 bb bb ef f6 bc 33 e7 1b bd
       -0.041586164 -0.0024729446 -0.03014361 -0.038062286
000010 6b e5 01 bd 66 62 1a bd 2c 5b c1 3c 63 1d ed 3c
       -0.03171293 -0.037691496 0.023603044 0.028944677
000020 af 8a 89 3d cd c6 61 3d d8 20 95 3d 77 7a 9a 3d
       0.06715905 0.05512123 0.07281655 0.075428896
000030 88 bc 78 3d 82 a8 86 3c fb 2b 96 bd dc 43 89 bd
       0.060726672 0.016437773 -0.07332607 -0.06702396
000040 1d d0 20 3c d7 5a 82 bc 9d ac 81 bd 5e 7e 01 bd
       0.009815243 -0.015912456 -0.063317515 -0.031614654
000050 38 f2 47 3d 15 93 46 3d 08 24 31 bc 5f 4e 01 bd
       0.048814982 0.048480112 -0.010811813 -0.03156888
000060 c0 c1 83 3d b0 f0 ed 3c a0 9b 1e bc 76 2f 6e bd
       0.06433439 0.029045433 -0.009680659 -0.05815073
000070 11 91 bc 3c 02 0b 93 3d 8e de 78 3b af bd 8a bd
       0.023018392 0.07179834 0.003797445 -0.067744605

model.fwd_gril.norms.0.weight f4 [32]
000000 00 00 80 3f 00 00 80 3f 00 00 80 3f 00 00 80 3f
       1.0 1.0 1.0 1.0
000010 00 00 80 3f 00 00 80 3f 00 00 80 3f 00 00 80 3f
       1.0 1.0 1.0 1.0
000020 00 00 80 3f 00 00 80 3f 00 00 80 3f 00 00 80 3f
       1.0 1.0 1.0 1.0
000030 00 00 80 3f 00 00 80 3f 00 00 80 3f 00 00 80 3f
       1.0 1.0 1.0 1.0
000040 00 00 80 3f 00 00 80 3f 00 00 80 3f 00 00 80 3f
       1.0 1.0 1.0 1.0
000050 00 00 80 3f 00 00 80 3f 00 00 80 3f 00 00 80 3f
       1.0 1.0 1.0 1.0
000060 00 00 80 3f 00 00 80 3f 00 00 80 3f 00 00 80 3f
       1.0 1.0 1.0 1.0
000070 00 00 80 3f 00 00 80 3f 00 00 80 3f 00 00 80 3f
       1.0 1.0 1.0 1.0

model.fwd_gril.norms.0.bias f4 [32]
000000 00 00 00 00 00 00 00 00 00 00 00 00 00 00 00 00
       0.0 0.0 0.0 0.0
000010 00 00 00 00 00 00 00 00 00 00 00 00 00 00 00 00
       0.0 0.0 0.0 0.0
000020 00 00 00 00 00 00 00 00 00 00 00 00 00 00 00 00
       0.0 0.0 0.0 0.0
000030 00 00 00 00 00 00 00 00 00 00 00 00 00 00 00 00
       0.0 0.0 0.0 0.0
000040 00 00 00 00 00 00 00 00 00 00 00 00 00 00 00 00
       0.0 0.0 0.0 0.0
000050 00 00 00 00 00 00 00 00 00 00 00 00 00 00 00 00
       0.0 0.0 0.0 0.0
000060 00 00 00 00 00 00 00 00 00 00 00 00 00 00 00 00
       0.0 0.0 0.0 0.0
000070 00 00 00 00 00 00 00 00 00 00 00 00 00 00 00 00
       0.0 0.0 0.0 0.0

model.fwd_gril.first_stage.weight f4 [1, 32]
000000 01 5b 2e b7 8f 6d ee 37 de 1c b6 3e 6b fa a5 be
       -1.0392397e-05 2.8422828e-05 0.355689 -0.32417616
000010 8c 8a db bd b3 15 c2 be b4 a2 a4 b7 13 cc 37 b8
       -0.10719785 -0.3790718 -1.9626088e-05 -4.382066e-05
000020 7f 2d 85 3e 55 94 53 be 81 52 c0 3e fd 40 d7 3e
       0.26011273 -0.20662053 0.37562945 0.4204177
000030 73 51 b9 b7 ca e8 8b be cf d4 b4 be 61 fb c9 3e
       -2.2091646e-05 -0.2732604 -0.3531861 0.394496
000040 dc 23 b3 be 5c 15 28 38 6b 63 a5 be 65 5c f4 3e
       -0.34988296 4.0074214e-05 -0.32302412 0.4772674
000050 1c 10 64 b6 bd 43 6a be 74 48 e9 3e 2f 6e db b6
       -3.3984024e-06 -0.22877403 0.4556309 -6.5395357e-06
000060 40 8f 2d 37 7e 8a d5 b7 97 84 2c 3e f8 5d c5 3e
       1.03449565e-05 -2.545607e-05 0.16847454 0.38548255
000070 65 d1 8c be b6 7c da be e8 71 4b be 17 00 32 b8
       -0.27503505 -0.42673272 -0.1986767 -4.243859e-05

model.fwd_gril.spatial_decoder.lin_in.weight f4 [32, 34]
000000 7d 64 35 3e 2b 96 be 3b 41 9a 75 b5 9c 55 ba b4
       0.17714114 0.0058162413 -9.149408e-07 -3.470749e-07
000010 d4 3b a5 bc b6 26 ad 3c 9d 4a f5 3b 12 cd a4 3c
       -0.02017013 0.021136623 0.0074857012 0.020117316
000020 dd bb 75 36 29 96 e4 36 52 35 5a bc f0 ae 6a 3c
       3.6617196e-06 6.8124104e-06 -0.013318377 0.014323935
000030 e8 ee ad bc a7 36 a5 bc 9b 97 b5 b3 69 6f 84 3c
       -0.021232083 -0.020167662 -8.456046e-08 0.016166406
000040 ca 19 c1 3c d7 8a 90 bc 33 54 bf 3c 18 4c 96 b5
       0.023571867 -0.017644329 0.023355579 -1.1198017e-06
000050 ed 95 b0 3c 8f b6 c1 bc 12 e7 05 36 ee 33 4f 3c
       0.021555865 -0.023646621 1.9953045e-06 0.012646658
000060 f9 aa bb bc 46 6d 18 36 85 92 30 b6 90 c1 1c 34
       -0.022908675 2.271337e-06 -2.631133e-06 1.459905e-07
000070 df 58 41 bc 10 2a a5 bc 7d fe 98 3c 73 fb aa 3c
       -0.011800974 -0.020161659 0.018676037 0.020871853
000080 b2 b8 62 3c 4e fb aa 35 0c 9f f6 3d bd ad 8d 3b
       0.01383798 1.2739126e-06 0.120420545 0.0043236897
000090 29 86 45 b6 cb 66 01 36 1d fe 5e bc 4b 27 6a 3c
       -2.943338e-06 1.9282331e-06 -0.01361039 0.014291595
0000a0 c8 36 a0 3b 05 a9 5e 3c 8f ec a6 36 64 6b 02 37
       0.004889343 0.013590102 4.9747246e-06 7.773608e-06
0000b0 c4 fc 11 bc 35 7f 1d 3c fe fa 6a bc 66 c5 5f bc
       -0.008910362 0.009612848 -0.014342068 -0.013657903
0000c0 1b 33 19 b6 13 ac 31 3c 20 d8 82 3c 33 c9 43 bc
       -2.2828524e-06 0.010844248 0.015972197 -0.011949825
0000d0 a9 a0 81 3c 6c a2 ab 35 54 fd 6e 3c ca 4b 83 bc
       0.015823679 1.2787764e-06 0.014586765 -0.01602735
0000e0 09 9b 7b 36 26 da 09 3c 43 49 7e bc 75 6d 84 36
       3.7492157e-06 0.008413827 -0.015520397 3.946649e-06
0000f0 93 07 8d b6 52 8b 0c b6 17 f7 00 bc 8d 3d 5f bc
       -4.203009e-06 -2.094272e-06 -0.007871411 -0.013625515
000100 f3 98 4e 3c 08 94 67 3c 14 05 18 3c a3 00 9a b5
       0.012609708 0.0141344145 0.0092785545 -1.1474079e-06
000110 ca 01 14 38 81 b2 91 37 8d a0 9b 37 64 c3 9c b7
       3.5287616e-05 1.736847e-05 1.8552202e-05 -1.8687635e-05
000120 63 79 81 b7 41 21 55 37 45 e5 b3 b7 e7 84 81 37
       -1.5434523e-05 1.2703532e-05 -2.1445225e-05 1.5439886e-05
000130 74 18 99 b7 3c 39 97 b7 bf 11 77 b7 5e 35 c0 36
       -1.8250408e-05 -1.8027255e-05 -1.4726479e-05 5.7282587e-06
000140 09 e7 82 b7 41 8c 63 b7 d7 65 9c 37 7e 0d 52 37
       -1.5604792e-05 -1.356291e-05 1.8644072e-05 1.2520117e-05
000150 9e ed 55 37 4d 2a 4d b7 80 1b 55 37 ee 50 9d b7
       1.2751114e-05 -1.2228801e-05 1.2702192e-05 -1.8753544e-05
000160 2f 6d 4d 37 06 33 6a b7 f4 8f 9a b7 c1 10 3f 37
       1.22443735e-05 -1.3959367e-05 -1.8425264e-05 1.1388388e-05
000170 41 fe 70 b7 a2 4b 9a b7 5e f5 99 37 01 99 9c 37
       -1.4364313e-05 -1.839345e-05 1.835328e-05 1.8667897e-05
000180 21 12 a1 34 59 21 80 b7 6a 23 31 37 e2 df 69 37
       3.0001777e-07 -1.5274318e-05 1.0558268e-05 1.3940009e-05
000190 57 fc a1 36 44 68 9d 37 31 2d 02 b8 b9 c6 8f b7
       4.82755e-06 1.8764411e-05 -3.1036503e-05 -1.7139466e-05
0001a0 d9 7e 9b b7 e8 81 9c 37 13 e0 69 37 d4 d2 3f b7
       -1.8536508e-05 1.8657141e-05 1.3940054e-05 -1.1433574e-05
0001b0 96 41 a2 37 f5 57 6a b7 f2 e6 98 37 0d 0a 97 37
       1.9342446e-05 -1.3967966e-05 1.8227354e-05 1.8005283e-05
0001c0 56 e1 5e 37 c8 64 a2 b6 a5 94 6c 37 7f 84 4e 37
       1.3284696e-05 -4.8397087e-06 1.4101305e-05 1.2309406e-05
0001d0 9a 2f 9c b7 ac cd 3b b7 2b d7 40 b7 fc 7e 3a 37
       -1.8618815e-05 -1.1193955e-05 -1.14941895e-05 1.111603e-05
0001e0 71 12 40 b7 7b fc 9c 37 a2 df 38 b7 18 99 54 37
       -1.14483855e-05 1.871422e-05 -1.1019323e-05 1.267183e-05
0001f0 8d 74 9a 37 04 89 2a b7 fc 95 5a 37 68 2a 9a 37
       1.8412504e-05 -1.0164691e-05 1.30287335e-05 1.8377978e-05
000200 af c5 99 b7 61 5b 9c b7 cb 7c 82 b5 63 ec 67 37
       -1.8331075e-05 -1.86392e-05 -9.722074e-07 1.3823711e-05
000210 8b 8d 1e b7 2a 2b 54 b7 d3 3b 85 b6 f7 0f 9d b7
       -9.450489e-06 -1.2646235e-05 -3.9706733e-06 -1.8723293e-05
000220 5c 8b 8d be 74 4b 0a bc 00 bb 3b 35 0d f2 4d 35
       -0.27645385 -0.008440841 6.993505e-07 7.672068e-07
000230 d8 47 01 3d 6e 45 07 bd e8 b2 43 bc 98 f3 00 bd
       0.031562656 -0.033025198 -0.01194451 -0.03148231
000240 dd 97 7e b6 89 b1 f7 b6 b3 70 ab 3c ef f4 b7 bc
       -3.7937345e-06 -7.3818414e-06 0.020927763 -0.02245566
000250 97 0a 08 3d 00 55 01 3d 90 1f 8c b4 eb bc cf bc
       0.033213224 0.031575203 -2.6099997e-07 -0.025358638
000260 f2 ba 16 bd 9b 76 e2 3c 37 5a 15 bd b7 2c e2 35
       -0.03679938 0.027644446 -0.03646299 1.6851326e-06
000270 ad e6 09 bd 71 9a 17 3d 0e 1b 01 b6 14 48 a3 bc
       -0.033667255 0.03701252 -1.9238246e-06 -0.01993183
000280 f8 d7 12 3d ce e1 15 b6 3d eb 30 36 ff 7a 0e b5
       0.035850495 -2.2334166e-06 2.636297e-06 -5.3078105e-07
000290 35 13 98 3c 5d 3c 01 3d 71 28 ef bc c3 d2 05 bd
       0.018563846 0.031551708 -0.029194089 -0.0326717
0002a0 9d cc b1 bc 24 fa fa b5 df 2e 9e b7 55 ea 7b 37
       -0.021704013 -1.8699252e-06 -1.8856894e-05 1.50153255e-05
0002b0 28 2c d9 b7 50 16 da 37 87 fb c8 36 26 52 aa b6
       -2.5888978e-05 2.5998015e-05 5.989746e-06 -5.075958e-06
0002c0 b1 8d cd 37 25 bd cb b6 f1 9e d2 37 aa 10 71 b7
       2.4503885e-05 -6.0718908e-06 2.5107964e-05 -1.4368599e-05
0002d0 53 c2 b1 36 03 f0 2d b6 53 b1 cc 36 d0 bc b9 36
       5.2976334e-06 -2.5918714e-06 6.100317e-06 5.5354103e-06
0002e0 a9 e6 d9 b7 2c 21 a2 b6 21 17 ac b6 54 12 a8 36
       -2.5975825e-05 -4.831838e-06 -5.128692e-06 5.008924e-06
0002f0 5d 65 ab b6 07 16 da 37 ab 2c a5 b6 f7 96 c0 36
       -5.1079974e-06 2.5997882e-05 -4.9225832e-06 5.7396205e-06
000300 1a ef 6d b7 90 53 85 b6 74 e1 c4 36 d3 e0 6c b7
       -1.4181971e-05 -3.973437e-06 5.8675014e-06 -1.4119042e-05
000310 05 ff 6e 37 84 39 d4 b7 06 00 f9 b2 a8 ac ca 36
       1.4245282e-05 -2.5299152e-05 -2.8987426e-08 6.040169e-06
000320 f2 cc 90 b6 56 91 be b6 a3 91 16 b6 14 12 da b7
       -4.315393e-06 -5.6793606e-06 -2.2436514e-06 -2.5996043e-05
000330 27 58 13 38 09 c2 ad 37 99 a2 ab 37 26 74 aa b7
       3.512963e-05 2.0713562e-05 2.0460504e-05 -2.0319665e-05
000340 fe 25 84 b7 a0 aa 59 37 9d ed be b7 e3 0f 84 37
       -1.5753318e-05 1.2973935e-05 -2.2760412e-05 1.5743024e-05
000350 dd a1 af b7 47 ba 80 b7 8e 8b 7c b7 48 ba ce 36
       -2.0937e-05 -1.5345531e-05 -1.5052863e-05 6.1609644e-06
000360 89 84 85 b7 0b 29 68 b7 dd e8 aa 37 4c 90 58 37
       -1.5916552e-05 -1.3837834e-05 2.0374015e-05 1.29082e-05
000370 95 b2 59 37 d1 6d 51 b7 78 e8 58 37 7f ea a9 b7
       1.2975787e-05 -1.2482939e-05 1.2928729e-05 -2.0255566e-05
000380 18 92 51 37 65 08 6f b7 ff 2e ad b7 56 0e 46 37
       1.2491386e-05 -1.4247465e-05 -2.0645091e-05 1.18050575e-05
000390 ff d9 75 b7 9a 9e ad b7 64 5a ae 37 81 9c aa 37
       -1.4653894e-05 -2.0697062e-05 2.0784508e-05 2.0338457e-05
0003a0 7a 4c ad b4 64 a2 82 b7 36 e3 35 37 09 95 6e 37
       -3.2279405e-07 -1.5572827e-05 1.0841342e-05 1.4220605e-05
0003b0 c5 67 b1 36 18 d1 a9 37 ba ad 00 be 4c 34 92 bb
       5.2870914e-06 2.0243737e-05 -0.12566271 -0.0044618007
0003c0 a0 e6 35 36 63 99 de b5 a1 fd 68 3c f3 94 74 bc
       2.7105343e-06 -1.658493e-06 0.014220626 -0.01492809
0003d0 35 21 a8 bb b8 99 68 bc 80 83 a2 b6 3f f5 00 b7
       -0.0051309117 -0.014196806 -4.843285e-06 -7.686495e-06
0003e0 27 b8 18 3c fd b0 24 bc f7 79 75 3c e7 a7 69 3c
       0.009321249 -0.010051963 0.014982692 0.014261222
0003f0 26 df 07 36 62 cc 39 bc 6a a0 88 bc dc 6c 4c 3c
       2.0246457e-06 -0.011340233 -0.016678054 0.012477126

model.fwd_gril.spatial_decoder.lin_in.bias f4 [32]
000000 b7 68 34 bd 26 b8 f5 bc 85 29 04 b8 a9 14 f8 37
       -0.044045176 -0.029995035 -3.150992e-05 2.9573524e-05
000010 9d a1 8c 3d 99 7d 0e b6 81 4a 10 b8 2b 2d 00 3d
       0.06866763 -2.1232756e-06 -3.4401663e-05 0.031293076
000020 23 1b 38 b8 98 ad fa bc df 87 6c bd 50 c3 5b bd
       -4.389429e-05 -0.030600354 -0.057746764 -0.05365306
000030 72 08 a4 3c 20 11 33 bd d0 8d 28 38 98 79 24 bd
       0.020023558 -0.043717504 4.0186394e-05 -0.040155023
000040 e4 5e 12 b8 d7 e0 17 b8 0d 41 5f bd cf a7 7f 3d
       -3.4897486e-05 -3.6210604e-05 -0.054505397 0.062415894
000050 5e d1 4b bc d5 73 1f 38 90 fc 38 3d 77 a0 e4 b7
       -0.012440054 3.801643e-05 0.045162737 -2.725444e-05
000060 cf d2 fb bc 46 75 6b 3d 62 73 04 bd 0c 75 23 bd
       -0.03074017 0.057484888 -0.0323366 -0.039906546
000070 ff e0 84 bb bb 7e 27 38 f8 ba 46 bd 7d be a8 3c
       -0.004055142 3.993393e-05 -0.04851815 0.020598644

model.fwd_gril.spatial_decoder.graph_conv.filters.weight f4 [32, 64]
000000 ae 38 0a 3d 17 67 bb 3c 1c cc 45 b5 de 18 1a 35
       0.03374546 0.022876306 -7.3685237e-07 5.7405657e-07
000010 46 11 58 bd d1 b6 3e 36 a8 3b 13 b5 cb a2 c3 bc
       -0.05275085 2.841862e-06 -5.484858e-07 -0.023881337
000020 c2 45 00 b6 4d 3e bf 3c 7f 8f 35 3d 1d 9e 28 3d
       -1.911409e-06 0.023345137 0.0443263 0.041166414
000030 28 36 78 bc 90 2f 09 3d 98 83 b4 35 02 cf fb 3c
       -0.015149631 0.033492625 1.3449344e-06 0.030738357
000040 56 9c 25 b5 a5 e5 8b b5 b1 4f 2b 3d c2 4f 44 bd
       -6.169479e-07 -1.0423142e-06 0.041824047 -0.047927625
000050 49 e9 17 3c 9a d5 66 35 58 c2 0d bd bf 73 16 35
       0.009271928 8.599251e-07 -0.03460917 5.604779e-07
000060 76 21 c0 3c 80 bb 34 bd eb 40 ca 3c ac 3b fa 3c
       0.023453455 -0.044124126 0.024689158 0.030546032
000070 50 01 31 3b 7b 57 c9 36 87 60 18 3d 82 84 7f bc
       0.002700884 6.000451e-06 0.03720143 -0.015595557
000080 04 46 02 3d 6e 8d b0 3c 20 82 c5 36 ed 32 a9 b6
       0.031805053 0.021551814 5.886206e-06 -5.042521e-06
000090 97 f1 4b bd 5d 0e 44 b6 a4 ca c1 36 30 4f b8 bc
       -0.049790945 -2.9214636e-06 5.7754387e-06 -0.022498697
0000a0 6f 51 52 37 a1 2b b4 3c 00 43 2b 3d 27 03 1f 3d
       1.2535936e-05 0.02199346 0.041811943 0.038821366
0000b0 bf ef 69 bc 90 4b 01 3d 4e bd 24 b7 9e 48 ed 3c
       -0.014278351 0.031566203 -9.819238e-06 0.02896529
0000c0 9a e5 cb 36 c0 f8 03 37 a4 8f 21 3d a6 3a 39 bd
       6.0766006e-06 7.866125e-06 0.039443627 -0.045221947
0000d0 fc 25 0f 3c 53 1f ff b6 bd 9d 05 bd 33 5e 09 36
       0.0087370835 -7.603239e-06 -0.032621134 2.0469422e-06
0000e0 ad 01 b5 3c 76 7a 2a bd 8e 8b be 3c 14 cc eb 3c
       0.022095526 -0.041620694 0.023259904 0.028783835
0000f0 2c 4c 27 3b 3c 27 be b7 e4 a6 0f 3d 73 d0 70 bc
       0.002552758 -2.2668035e-05 0.03507127 -0.014698136
000100 2a a6 34 38 0c 5b 5e 38 42 e5 a6 b7 21 09 b0 37
       4.3070097e-05 5.301372e-05 -1.9895499e-05 2.0985086e-05
000110 62 d2 95 b7 6d bd b4 b7 c0 13 d5 b7 ed 7e 5d b8
       -1.7860151e-05 -2.154588e-05 -2.5400775e-05 -5.2808715e-05
000120 06 44 9d b7 1d 11 5e 38 31 47 e9 37 e7 3c 07 38
       -1.8747534e-05 5.2944863e-05 2.7808916e-05 3.2243228e-05
000130 8e 29 3d b8 6f 21 36 38 1e f5 97 37 5e 5b 45 38
       -4.5099812e-05 4.342332e-05 1.8114744e-05 4.7053552e-05
000140 62 14 d0 b7 8c 3c b2 b7 5d 46 03 38 5c 60 c2 b7
       -2.4805024e-05 -2.1247448e-05 3.1298365e-05 -2.3171473e-05
000150 36 b5 bf 37 cc e8 a4 37 11 84 2f b8 c9 84 fa b7
       2.2853357e-05 1.9658728e-05 -4.1846248e-05 -2.9864155e-05
000160 cf f8 5d 38 0f 95 eb b7 eb 2e 5c 38 86 57 46 38
       5.2922227e-05 -2.8083594e-05 5.2495783e-05 4.728839e-05
000170 33 21 dc 36 20 0a 50 b6 72 a8 1f 38 b9 83 41 b8
       6.560376e-06 -3.1000309e-06 3.806543e-05 -4.6137462e-05
000180 10 83 be b8 50 45 97 b8 ab d7 f1 b7 08 1d f8 37
       -9.084318e-05 -7.2131515e-05 -2.8829867e-05 2.9577423e-05
000190 3c f3 e5 38 6d 56 bc b7 f5 e1 0a b8 43 d1 9a 38
       0.00010964877 -2.2451592e-05 -3.3112203e-05 7.38227e-05
0001a0 df ed b8 b7 1b ea 98 b8 59 32 db b8 13 4d d4 b8
       -2.2045277e-05 -7.29153e-05 -0.00010452112 -0.00010123304
0001b0 d0 7f 80 38 69 a7 bd b8 ce 18 df 37 a9 f6 b3 b8
       6.1273226e-05 -9.043405e-05 2.6595222e-05 -8.581329e-05
0001c0 16 37 0a b8 45 8c ff b7 f7 dc d5 b8 7f 25 e1 38
       -3.2953067e-05 -3.0463687e-05 -0.000101977894 0.0001073582
0001d0 1b 98 64 b8 56 51 f0 37 55 65 c1 38 c7 c4 da b7
       -5.4501095e-05 2.8648104e-05 9.221832e-05 -2.6079257e-05
0001e0 03 4c 99 b8 53 cd da 38 5c b9 9d b8 93 44 b3 b8
       -7.309767e-05 0.00010433295 -7.520869e-05 -8.548158e-05
0001f0 0f 30 25 b7 58 01 9f b5 05 8c c9 b8 0b 8d 81 38
       -9.845956e-06 -1.1846814e-06 -9.6105075e-05 6.177471e-05
000200 42 0a 5d b6 49 60 40 35 47 54 3a 37 fe eb 18 b7
       -3.2937537e-06 7.1665687e-07 1.1106086e-05 -9.114852e-06
000210 56 81 28 37 04 f4 83 37 5f 3f d1 37 12 2b eb b4
       1.0043694e-05 1.5730046e-05 2.4944251e-05 -4.38035e-07
000220 9e f1 ba b6 06 96 1e 35 56 f0 f8 b6 ad 30 d2 b6
       -5.57136e-06 5.90779e-07 -7.4189547e-06 -6.2641543e-06
000230 01 92 97 b5 64 0c 56 b6 53 bd 95 37 f6 15 0a b6
       -1.1292869e-06 -3.1895697e-06 1.7850345e-05 -2.0576385e-06
000240 ce 1a c6 37 c4 a9 4f 37 ed 79 da b6 01 b4 10 37
       2.3615921e-05 1.2377688e-05 -6.5111003e-06 8.624979e-06
000250 00 f5 06 b6 27 fb 31 35 91 fd 74 36 a3 77 f3 37
       -2.0110165e-06 6.6303113e-07 3.6506428e-06 2.9023568e-05
000260 66 7d 16 35 91 8b f6 36 cc 89 4d 34 e6 da 04 b6
       5.6061833e-07 7.347619e-06 1.9142243e-07 -1.9796948e-06
000270 f7 6d 0d b7 e7 43 ab b7 40 09 9e b6 e9 0d a4 b5
       -8.429858e-06 -2.0416408e-05 -4.709844e-06 -1.2223e-06
000280 ac a2 c5 37 89 06 90 37 f4 78 d2 37 0c f3 ce b7
       2.355998e-05 1.716918e-05 2.5090274e-05 -2.4670291e-05
000290 1b d8 f0 b7 3b a9 92 37 52 87 ac 37 39 c3 96 b7
       -2.8710861e-05 1.748336e-05 2.0567011e-05 -1.7972301e-05
0002a0 a8 da ea 37 b4 39 93 37 46 ac e1 37 48 b3 da 37
       2.7996794e-05 1.7550636e-05 2.6902311e-05 2.607111e-05
0002b0 01 c2 14 b7 1e c2 c4 37 a7 87 ce b7 e9 53 ba 37
       -8.8666575e-06 2.3455414e-05 -2.4620282e-05 2.2212002e-05
0002c0 82 8b ac 37 d4 62 b7 37 cf 3a dc 37 16 aa e8 b7
       2.0568961e-05 2.186132e-05 2.6253429e-05 -2.7735758e-05
0002d0 0b b3 00 35 5c 50 cb b7 b7 87 c8 b7 c4 a2 c9 37
       4.794426e-07 -2.4236906e-05 -2.3905055e-05 2.403686e-05
0002e0 33 f3 93 37 c3 40 e1 b7 ec d9 9b 37 4a 88 b9 37
       1.7637014e-05 -2.6852247e-05 1.8578918e-05 2.2117183e-05
0002f0 3b 3c 89 b6 03 11 3a 36 7c 70 d0 37 63 a1 1e b7
       -4.08993e-06 2.7726062e-06 2.4847912e-05 -9.45511e-06
000300 7c 9b 6c 3d d7 ad 20 3d 00 9e 86 33 45 11 8a b4
       0.05776547 0.039228287 6.268601e-08 -2.5717068e-07
000310 70 aa b8 bd 06 3d 91 36 f7 4c a8 34 af b3 27 bd
       -0.090168834 4.328441e-06 3.1348438e-07 -0.040942844
000320 28 bc b3 b5 5b f4 23 3d b0 40 9b 3d e4 37 90 3d
       -1.33913e-06 0.040027957 0.075806975 0.0704191
000330 4d 48 d5 bc 78 d7 6a 3d e4 65 46 35 94 9a 57 3d
       -0.026035452 0.057334393 7.390902e-07 0.05263765
000340 02 77 71 34 6c f7 c5 b4 d2 83 92 3d 85 d3 a7 bd
       2.2488169e-07 -3.6874133e-07 0.07154049 -0.08194641
000350 a0 e1 82 3c 50 4f 05 34 2f a4 72 bd 3c 0c db 35
       0.015976727 1.2415444e-07 -0.05923861 1.6320332e-06
000360 17 b6 24 3d fa 8b 9a bd bb 58 2d 3d de 42 56 3d
       0.040212717 -0.0754623 0.042320948 0.052309863
000370 0b ca 9c 3b d9 03 95 36 79 5f 82 3d f9 86 db bc
       0.0047848276 4.440994e-06 0.06365866 -0.026797758
000380 36 6f 5f 3d cc 7d 17 3d 7c 7f 0a 37 5d 43 f1 b6
       0.05454942 0.036985204 8.255123e-06 -7.190202e-06
000390 7d af ae bd ff 68 7d b6 55 5b 09 37 2a 23 1e bd
       -0.085295655 -3.7761054e-06 8.187101e-06 -0.038607754
0003a0 d9 82 8b 37 7b 97 1a 3d 8e c5 92 3d 4c 4d 88 3d
       1.6631022e-05 0.03774212 0.07166587 0.06655368
0003b0 72 de c8 bc aa c2 5d 3d 4b 30 5d b7 e7 84 4b 3d
       -0.024520133 0.054140724 -1.3183871e-05 0.049687292
0003c0 2f a4 0f 37 a6 f1 33 37 25 7b 8a 3d a0 b4 9e bd
       8.561691e-06 1.0725495e-05 0.06761769 -0.07749295
0003d0 85 78 76 3c f6 9e 2f b7 7b 28 65 bd a4 3d 67 36
       0.0150433825 -1.0467824e-05 -0.05594681 3.4457562e-06
0003e0 c7 4e 1b 3d 05 1a 92 bd 66 7b 23 3d 17 3f 4a 3d
       0.037916925 -0.07133869 0.039912604 0.049376573
0003f0 6c da 92 3b 64 e9 fc b7 96 54 76 3d 3d c2 ce bc
       0.0044816043 -3.0149422e-05 0.06013926 -0.025239104

model.fwd_gril.spatial_decoder.graph_conv.filters.bias f4 [32]
000000 9f 15 1b 3b f0 a1 62 ba f6 2a 50 37 ee bf 7f 3b
       0.002366401 -0.00086453464 1.2407769e-05 0.003902431
000010 5c 1e 7f ba 40 12 30 bb b9 c5 c4 ba 96 e5 28 b7
       -0.0009732002 -0.0026866347 -0.0015012539 -1.0067035e-05
000020 95 f6 a1 37 68 9e 5c 3b 3c 56 bb ba e8 9d 81 ba
       1.930752e-05 0.0033663753 -0.0014292668 -0.0009888979
000030 0b 31 82 3a fd 49 c4 3a f0 61 f4 ba c5 e5 01 bb
       0.0009932829 0.0014975664 -0.001864491 -0.0019820791
000040 c5 aa 08 bb 14 1d 18 39 01 6a 31 38 eb 50 ad b5
       -0.002085374 0.00014506682 4.2298812e-05 -1.2913055e-06
000050 2d 91 21 bb ae 71 93 39 43 fa c9 ba fb 8e c9 ba
       -0.0024653182 0.00028122723 -0.0015409667 -0.0015377695
000060 66 71 41 bb f9 0f 7e 3b 03 7b b3 36 ce 33 33 bb
       -0.0029517054 0.0038766845 5.348936e-06 -0.002734411
000070 8f ba 59 37 55 b4 37 37 84 bf d3 b6 00 ea f0 3a
       1.29776445e-05 1.0949637e-05 -6.3105854e-06 0.0018380284
